{"format": "layers-model", "generatedBy": "keras v2.6.0", "convertedBy": "TensorFlow.js Converter v3.9.0", "modelTopology": {"keras_version": "2.6.0", "backend": "tensorflow", "model_config": {"class_name": "Sequential", "config": {"name": "sequential", "layers": [{"class_name": "DenseFeatures", "config": {"name": "dense_features", "trainable": true, "dtype": "float32", "feature_columns": [{"class_name": "NumericColumn", "config": {"key": "cards", "shape": [1], "default_value": null, "dtype": "float32", "normalizer_fn": null}}, {"class_name": "NumericColumn", "config": {"key": "on_play", "shape": [1], "default_value": null, "dtype": "float32", "normalizer_fn": null}}, {"class_name": "NumericColumn", "config": {"key": "opening_hand_Abundant_Harvest", "shape": [1], "default_value": null, "dtype": "float32", "normalizer_fn": null}}, {"class_name": "NumericColumn", "config": {"key": "opening_hand_Academic_Dispute", "shape": [1], "default_value": null, "dtype": "float32", "normalizer_fn": null}}, {"class_name": "NumericColumn", "config": {"key": "opening_hand_Academic_Probation", "shape": [1], "default_value": null, "dtype": "float32", "normalizer_fn": null}}, {"class_name": "NumericColumn", "config": {"key": "opening_hand_Access_Tunnel", "shape": [1], "default_value": null, "dtype": "float32", "normalizer_fn": null}}, {"class_name": "NumericColumn", "config": {"key": "opening_hand_Accomplished_Alchemist", "shape": [1], "default_value": null, "dtype": "float32", "normalizer_fn": null}}, {"class_name": "NumericColumn", "config": {"key": "opening_hand_Adventurous_Impulse", "shape": [1], "default_value": null, "dtype": "float32", "normalizer_fn": null}}, {"class_name": "NumericColumn", "config": {"key": "opening_hand_Aether_Helix", "shape": [1], "default_value": null, "dtype": "float32", "normalizer_fn": null}}, {"class_name": "NumericColumn", "config": {"key": "opening_hand_Ageless_Guardian", "shape": [1], "default_value": null, "dtype": "float32", "normalizer_fn": null}}, {"class_name": "NumericColumn", "config": {"key": "opening_hand_Agonizing_Remorse", "shape": [1], "default_value": null, "dtype": "float32", "normalizer_fn": null}}, {"class_name": "NumericColumn", "config": {"key": "opening_hand_Approach_of_the_Second_Sun", "shape": [1], "default_value": null, "dtype": "float32", "normalizer_fn": null}}, {"class_name": "NumericColumn", "config": {"key": "opening_hand_Arcane_Subtraction", "shape": [1], "default_value": null, "dtype": "float32", "normalizer_fn": null}}, {"class_name": "NumericColumn", "config": {"key": "opening_hand_Archmage_Emeritus", "shape": [1], "default_value": null, "dtype": "float32", "normalizer_fn": null}}, {"class_name": "NumericColumn", "config": {"key": "opening_hand_Archway_Commons", "shape": [1], "default_value": null, "dtype": "float32", "normalizer_fn": null}}, {"class_name": "NumericColumn", "config": {"key": "opening_hand_Ardent_Dustspeaker", "shape": [1], "default_value": null, "dtype": "float32", "normalizer_fn": null}}, {"class_name": "NumericColumn", "config": {"key": "opening_hand_Arrogant_Poet", "shape": [1], "default_value": null, "dtype": "float32", "normalizer_fn": null}}, {"class_name": "NumericColumn", "config": {"key": "opening_hand_Augmenter_Pugilist", "shape": [1], "default_value": null, "dtype": "float32", "normalizer_fn": null}}, {"class_name": "NumericColumn", "config": {"key": "opening_hand_Baleful_Mastery", "shape": [1], "default_value": null, "dtype": "float32", "normalizer_fn": null}}, {"class_name": "NumericColumn", "config": {"key": "opening_hand_Basic_Conjuration", "shape": [1], "default_value": null, "dtype": "float32", "normalizer_fn": null}}, {"class_name": "NumericColumn", "config": {"key": "opening_hand_Bayou_Groff", "shape": [1], "default_value": null, "dtype": "float32", "normalizer_fn": null}}, {"class_name": "NumericColumn", "config": {"key": "opening_hand_Beaming_Defiance", "shape": [1], "default_value": null, "dtype": "float32", "normalizer_fn": null}}, {"class_name": "NumericColumn", "config": {"key": "opening_hand_Beledros_Witherbloom", "shape": [1], "default_value": null, "dtype": "float32", "normalizer_fn": null}}, {"class_name": "NumericColumn", "config": {"key": "opening_hand_Biblioplex_Assistant", "shape": [1], "default_value": null, "dtype": "float32", "normalizer_fn": null}}, {"class_name": "NumericColumn", "config": {"key": "opening_hand_Big_Play", "shape": [1], "default_value": null, "dtype": "float32", "normalizer_fn": null}}, {"class_name": "NumericColumn", "config": {"key": "opening_hand_Biomathematician", "shape": [1], "default_value": null, "dtype": "float32", "normalizer_fn": null}}, {"class_name": "NumericColumn", "config": {"key": "opening_hand_Blade_Historian", "shape": [1], "default_value": null, "dtype": "float32", "normalizer_fn": null}}, {"class_name": "NumericColumn", "config": {"key": "opening_hand_Blex_Vexing_Pest", "shape": [1], "default_value": null, "dtype": "float32", "normalizer_fn": null}}, {"class_name": "NumericColumn", "config": {"key": "opening_hand_Blood_Age_General", "shape": [1], "default_value": null, "dtype": "float32", "normalizer_fn": null}}, {"class_name": "NumericColumn", "config": {"key": "opening_hand_Blood_Researcher", "shape": [1], "default_value": null, "dtype": "float32", "normalizer_fn": null}}, {"class_name": "NumericColumn", "config": {"key": "opening_hand_Blot_Out_the_Sky", "shape": [1], "default_value": null, "dtype": "float32", "normalizer_fn": null}}, {"class_name": "NumericColumn", "config": {"key": "opening_hand_Blue_Suns_Zenith", "shape": [1], "default_value": null, "dtype": "float32", "normalizer_fn": null}}, {"class_name": "NumericColumn", "config": {"key": "opening_hand_Body_of_Research", "shape": [1], "default_value": null, "dtype": "float32", "normalizer_fn": null}}, {"class_name": "NumericColumn", "config": {"key": "opening_hand_Bookwurm", "shape": [1], "default_value": null, "dtype": "float32", "normalizer_fn": null}}, {"class_name": "NumericColumn", "config": {"key": "opening_hand_Brackish_Trudge", "shape": [1], "default_value": null, "dtype": "float32", "normalizer_fn": null}}, {"class_name": "NumericColumn", "config": {"key": "opening_hand_Brainstorm", "shape": [1], "default_value": null, "dtype": "float32", "normalizer_fn": null}}, {"class_name": "NumericColumn", "config": {"key": "opening_hand_Burrog_Befuddler", "shape": [1], "default_value": null, "dtype": "float32", "normalizer_fn": null}}, {"class_name": "NumericColumn", "config": {"key": "opening_hand_Bury_in_Books", "shape": [1], "default_value": null, "dtype": "float32", "normalizer_fn": null}}, {"class_name": "NumericColumn", "config": {"key": "opening_hand_Callous_Bloodmage", "shape": [1], "default_value": null, "dtype": "float32", "normalizer_fn": null}}, {"class_name": "NumericColumn", "config": {"key": "opening_hand_Campus_Guide", "shape": [1], "default_value": null, "dtype": "float32", "normalizer_fn": null}}, {"class_name": "NumericColumn", "config": {"key": "opening_hand_Channel", "shape": [1], "default_value": null, "dtype": "float32", "normalizer_fn": null}}, {"class_name": "NumericColumn", "config": {"key": "opening_hand_Chaos_Warp", "shape": [1], "default_value": null, "dtype": "float32", "normalizer_fn": null}}, {"class_name": "NumericColumn", "config": {"key": "opening_hand_Charge_Through", "shape": [1], "default_value": null, "dtype": "float32", "normalizer_fn": null}}, {"class_name": "NumericColumn", "config": {"key": "opening_hand_Claim_the_Firstborn", "shape": [1], "default_value": null, "dtype": "float32", "normalizer_fn": null}}, {"class_name": "NumericColumn", "config": {"key": "opening_hand_Clever_Lumimancer", "shape": [1], "default_value": null, "dtype": "float32", "normalizer_fn": null}}, {"class_name": "NumericColumn", "config": {"key": "opening_hand_Closing_Statement", "shape": [1], "default_value": null, "dtype": "float32", "normalizer_fn": null}}, {"class_name": "NumericColumn", "config": {"key": "opening_hand_Codie_Vociferous_Codex", "shape": [1], "default_value": null, "dtype": "float32", "normalizer_fn": null}}, {"class_name": "NumericColumn", "config": {"key": "opening_hand_Cogwork_Archivist", "shape": [1], "default_value": null, "dtype": "float32", "normalizer_fn": null}}, {"class_name": "NumericColumn", "config": {"key": "opening_hand_Combat_Professor", "shape": [1], "default_value": null, "dtype": "float32", "normalizer_fn": null}}, {"class_name": "NumericColumn", "config": {"key": "opening_hand_Compulsive_Research", "shape": [1], "default_value": null, "dtype": "float32", "normalizer_fn": null}}, {"class_name": "NumericColumn", "config": {"key": "opening_hand_Confront_the_Past", "shape": [1], "default_value": null, "dtype": "float32", "normalizer_fn": null}}, {"class_name": "NumericColumn", "config": {"key": "opening_hand_Conspiracy_Theorist", "shape": [1], "default_value": null, "dtype": "float32", "normalizer_fn": null}}, {"class_name": "NumericColumn", "config": {"key": "opening_hand_Containment_Breach", "shape": [1], "default_value": null, "dtype": "float32", "normalizer_fn": null}}, {"class_name": "NumericColumn", "config": {"key": "opening_hand_Counterspell", "shape": [1], "default_value": null, "dtype": "float32", "normalizer_fn": null}}, {"class_name": "NumericColumn", "config": {"key": "opening_hand_Crackle_with_Power", "shape": [1], "default_value": null, "dtype": "float32", "normalizer_fn": null}}, {"class_name": "NumericColumn", "config": {"key": "opening_hand_Cram_Session", "shape": [1], "default_value": null, "dtype": "float32", "normalizer_fn": null}}, {"class_name": "NumericColumn", "config": {"key": "opening_hand_Creative_Outburst", "shape": [1], "default_value": null, "dtype": "float32", "normalizer_fn": null}}, {"class_name": "NumericColumn", "config": {"key": "opening_hand_Crushing_Disappointment", "shape": [1], "default_value": null, "dtype": "float32", "normalizer_fn": null}}, {"class_name": "NumericColumn", "config": {"key": "opening_hand_Crux_of_Fate", "shape": [1], "default_value": null, "dtype": "float32", "normalizer_fn": null}}, {"class_name": "NumericColumn", "config": {"key": "opening_hand_Culling_Ritual", "shape": [1], "default_value": null, "dtype": "float32", "normalizer_fn": null}}, {"class_name": "NumericColumn", "config": {"key": "opening_hand_Culmination_of_Studies", "shape": [1], "default_value": null, "dtype": "float32", "normalizer_fn": null}}, {"class_name": "NumericColumn", "config": {"key": "opening_hand_Cultivate", "shape": [1], "default_value": null, "dtype": "float32", "normalizer_fn": null}}, {"class_name": "NumericColumn", "config": {"key": "opening_hand_Curate", "shape": [1], "default_value": null, "dtype": "float32", "normalizer_fn": null}}, {"class_name": "NumericColumn", "config": {"key": "opening_hand_Daemogoth_Titan", "shape": [1], "default_value": null, "dtype": "float32", "normalizer_fn": null}}, {"class_name": "NumericColumn", "config": {"key": "opening_hand_Daemogoth_Woe-Eater", "shape": [1], "default_value": null, "dtype": "float32", "normalizer_fn": null}}, {"class_name": "NumericColumn", "config": {"key": "opening_hand_Dark_Ritual", "shape": [1], "default_value": null, "dtype": "float32", "normalizer_fn": null}}, {"class_name": "NumericColumn", "config": {"key": "opening_hand_Day_of_Judgment", "shape": [1], "default_value": null, "dtype": "float32", "normalizer_fn": null}}, {"class_name": "NumericColumn", "config": {"key": "opening_hand_Deadly_Brew", "shape": [1], "default_value": null, "dtype": "float32", "normalizer_fn": null}}, {"class_name": "NumericColumn", "config": {"key": "opening_hand_Decisive_Denial", "shape": [1], "default_value": null, "dtype": "float32", "normalizer_fn": null}}, {"class_name": "NumericColumn", "config": {"key": "opening_hand_Defend_the_Campus", "shape": [1], "default_value": null, "dtype": "float32", "normalizer_fn": null}}, {"class_name": "NumericColumn", "config": {"key": "opening_hand_Defiant_Strike", "shape": [1], "default_value": null, "dtype": "float32", "normalizer_fn": null}}, {"class_name": "NumericColumn", "config": {"key": "opening_hand_Demonic_Tutor", "shape": [1], "default_value": null, "dtype": "float32", "normalizer_fn": null}}, {"class_name": "NumericColumn", "config": {"key": "opening_hand_Despark", "shape": [1], "default_value": null, "dtype": "float32", "normalizer_fn": null}}, {"class_name": "NumericColumn", "config": {"key": "opening_hand_Detention_Vortex", "shape": [1], "default_value": null, "dtype": "float32", "normalizer_fn": null}}, {"class_name": "NumericColumn", "config": {"key": "opening_hand_Devastating_Mastery", "shape": [1], "default_value": null, "dtype": "float32", "normalizer_fn": null}}, {"class_name": "NumericColumn", "config": {"key": "opening_hand_Devouring_Tendrils", "shape": [1], "default_value": null, "dtype": "float32", "normalizer_fn": null}}, {"class_name": "NumericColumn", "config": {"key": "opening_hand_Dina_Soul_Steeper", "shape": [1], "default_value": null, "dtype": "float32", "normalizer_fn": null}}, {"class_name": "NumericColumn", "config": {"key": "opening_hand_Divide_by_Zero", "shape": [1], "default_value": null, "dtype": "float32", "normalizer_fn": null}}, {"class_name": "NumericColumn", "config": {"key": "opening_hand_Divine_Gambit", "shape": [1], "default_value": null, "dtype": "float32", "normalizer_fn": null}}, {"class_name": "NumericColumn", "config": {"key": "opening_hand_Doom_Blade", "shape": [1], "default_value": null, "dtype": "float32", "normalizer_fn": null}}, {"class_name": "NumericColumn", "config": {"key": "opening_hand_Double_Major", "shape": [1], "default_value": null, "dtype": "float32", "normalizer_fn": null}}, {"class_name": "NumericColumn", "config": {"key": "opening_hand_Draconic_Intervention", "shape": [1], "default_value": null, "dtype": "float32", "normalizer_fn": null}}, {"class_name": "NumericColumn", "config": {"key": "opening_hand_Dragons_Approach", "shape": [1], "default_value": null, "dtype": "float32", "normalizer_fn": null}}, {"class_name": "NumericColumn", "config": {"key": "opening_hand_Dragonsguard_Elite", "shape": [1], "default_value": null, "dtype": "float32", "normalizer_fn": null}}, {"class_name": "NumericColumn", "config": {"key": "opening_hand_Dramatic_Finale", "shape": [1], "default_value": null, "dtype": "float32", "normalizer_fn": null}}, {"class_name": "NumericColumn", "config": {"key": "opening_hand_Dream_Strix", "shape": [1], "default_value": null, "dtype": "float32", "normalizer_fn": null}}, {"class_name": "NumericColumn", "config": {"key": "opening_hand_Dueling_Coach", "shape": [1], "default_value": null, "dtype": "float32", "normalizer_fn": null}}, {"class_name": "NumericColumn", "config": {"key": "opening_hand_Duress", "shape": [1], "default_value": null, "dtype": "float32", "normalizer_fn": null}}, {"class_name": "NumericColumn", "config": {"key": "opening_hand_Eager_First-Year", "shape": [1], "default_value": null, "dtype": "float32", "normalizer_fn": null}}, {"class_name": "NumericColumn", "config": {"key": "opening_hand_Ecological_Appreciation", "shape": [1], "default_value": null, "dtype": "float32", "normalizer_fn": null}}, {"class_name": "NumericColumn", "config": {"key": "opening_hand_Efreet_Flamepainter", "shape": [1], "default_value": null, "dtype": "float32", "normalizer_fn": null}}, {"class_name": "NumericColumn", "config": {"key": "opening_hand_Electrolyze", "shape": [1], "default_value": null, "dtype": "float32", "normalizer_fn": null}}, {"class_name": "NumericColumn", "config": {"key": "opening_hand_Elemental_Expressionist", "shape": [1], "default_value": null, "dtype": "float32", "normalizer_fn": null}}, {"class_name": "NumericColumn", "config": {"key": "opening_hand_Elemental_Masterpiece", "shape": [1], "default_value": null, "dtype": "float32", "normalizer_fn": null}}, {"class_name": "NumericColumn", "config": {"key": "opening_hand_Elemental_Summoning", "shape": [1], "default_value": null, "dtype": "float32", "normalizer_fn": null}}, {"class_name": "NumericColumn", "config": {"key": "opening_hand_Eliminate", "shape": [1], "default_value": null, "dtype": "float32", "normalizer_fn": null}}, {"class_name": "NumericColumn", "config": {"key": "opening_hand_Elite_Spellbinder", "shape": [1], "default_value": null, "dtype": "float32", "normalizer_fn": null}}, {"class_name": "NumericColumn", "config": {"key": "opening_hand_Emergent_Sequence", "shape": [1], "default_value": null, "dtype": "float32", "normalizer_fn": null}}, {"class_name": "NumericColumn", "config": {"key": "opening_hand_Enthusiastic_Study", "shape": [1], "default_value": null, "dtype": "float32", "normalizer_fn": null}}, {"class_name": "NumericColumn", "config": {"key": "opening_hand_Environmental_Sciences", "shape": [1], "default_value": null, "dtype": "float32", "normalizer_fn": null}}, {"class_name": "NumericColumn", "config": {"key": "opening_hand_Ephemerate", "shape": [1], "default_value": null, "dtype": "float32", "normalizer_fn": null}}, {"class_name": "NumericColumn", "config": {"key": "opening_hand_Essence_Infusion", "shape": [1], "default_value": null, "dtype": "float32", "normalizer_fn": null}}, {"class_name": "NumericColumn", "config": {"key": "opening_hand_Eureka_Moment", "shape": [1], "default_value": null, "dtype": "float32", "normalizer_fn": null}}, {"class_name": "NumericColumn", "config": {"key": "opening_hand_Excavated_Wall", "shape": [1], "default_value": null, "dtype": "float32", "normalizer_fn": null}}, {"class_name": "NumericColumn", "config": {"key": "opening_hand_Exhilarating_Elocution", "shape": [1], "default_value": null, "dtype": "float32", "normalizer_fn": null}}, {"class_name": "NumericColumn", "config": {"key": "opening_hand_Expanded_Anatomy", "shape": [1], "default_value": null, "dtype": "float32", "normalizer_fn": null}}, {"class_name": "NumericColumn", "config": {"key": "opening_hand_Expel", "shape": [1], "default_value": null, "dtype": "float32", "normalizer_fn": null}}, {"class_name": "NumericColumn", "config": {"key": "opening_hand_Explosive_Welcome", "shape": [1], "default_value": null, "dtype": "float32", "normalizer_fn": null}}, {"class_name": "NumericColumn", "config": {"key": "opening_hand_Exponential_Growth", "shape": [1], "default_value": null, "dtype": "float32", "normalizer_fn": null}}, {"class_name": "NumericColumn", "config": {"key": "opening_hand_Expressive_Iteration", "shape": [1], "default_value": null, "dtype": "float32", "normalizer_fn": null}}, {"class_name": "NumericColumn", "config": {"key": "opening_hand_Extus_Oriq_Overlord", "shape": [1], "default_value": null, "dtype": "float32", "normalizer_fn": null}}, {"class_name": "NumericColumn", "config": {"key": "opening_hand_Eyetwitch", "shape": [1], "default_value": null, "dtype": "float32", "normalizer_fn": null}}, {"class_name": "NumericColumn", "config": {"key": "opening_hand_Faithless_Looting", "shape": [1], "default_value": null, "dtype": "float32", "normalizer_fn": null}}, {"class_name": "NumericColumn", "config": {"key": "opening_hand_Fervent_Mastery", "shape": [1], "default_value": null, "dtype": "float32", "normalizer_fn": null}}, {"class_name": "NumericColumn", "config": {"key": "opening_hand_Field_Trip", "shape": [1], "default_value": null, "dtype": "float32", "normalizer_fn": null}}, {"class_name": "NumericColumn", "config": {"key": "opening_hand_First_Day_of_Class", "shape": [1], "default_value": null, "dtype": "float32", "normalizer_fn": null}}, {"class_name": "NumericColumn", "config": {"key": "opening_hand_Flamescroll_Celebrant", "shape": [1], "default_value": null, "dtype": "float32", "normalizer_fn": null}}, {"class_name": "NumericColumn", "config": {"key": "opening_hand_Flunk", "shape": [1], "default_value": null, "dtype": "float32", "normalizer_fn": null}}, {"class_name": "NumericColumn", "config": {"key": "opening_hand_Forest", "shape": [1], "default_value": null, "dtype": "float32", "normalizer_fn": null}}, {"class_name": "NumericColumn", "config": {"key": "opening_hand_Fortifying_Draught", "shape": [1], "default_value": null, "dtype": "float32", "normalizer_fn": null}}, {"class_name": "NumericColumn", "config": {"key": "opening_hand_Fractal_Summoning", "shape": [1], "default_value": null, "dtype": "float32", "normalizer_fn": null}}, {"class_name": "NumericColumn", "config": {"key": "opening_hand_Fracture", "shape": [1], "default_value": null, "dtype": "float32", "normalizer_fn": null}}, {"class_name": "NumericColumn", "config": {"key": "opening_hand_Frost_Trickster", "shape": [1], "default_value": null, "dtype": "float32", "normalizer_fn": null}}, {"class_name": "NumericColumn", "config": {"key": "opening_hand_Frostboil_Snarl", "shape": [1], "default_value": null, "dtype": "float32", "normalizer_fn": null}}, {"class_name": "NumericColumn", "config": {"key": "opening_hand_Fuming_Effigy", "shape": [1], "default_value": null, "dtype": "float32", "normalizer_fn": null}}, {"class_name": "NumericColumn", "config": {"key": "opening_hand_Furycalm_Snarl", "shape": [1], "default_value": null, "dtype": "float32", "normalizer_fn": null}}, {"class_name": "NumericColumn", "config": {"key": "opening_hand_Galazeth_Prismari", "shape": [1], "default_value": null, "dtype": "float32", "normalizer_fn": null}}, {"class_name": "NumericColumn", "config": {"key": "opening_hand_Gift_of_Estates", "shape": [1], "default_value": null, "dtype": "float32", "normalizer_fn": null}}, {"class_name": "NumericColumn", "config": {"key": "opening_hand_Gnarled_Professor", "shape": [1], "default_value": null, "dtype": "float32", "normalizer_fn": null}}, {"class_name": "NumericColumn", "config": {"key": "opening_hand_Go_Blank", "shape": [1], "default_value": null, "dtype": "float32", "normalizer_fn": null}}, {"class_name": "NumericColumn", "config": {"key": "opening_hand_Gods_Willing", "shape": [1], "default_value": null, "dtype": "float32", "normalizer_fn": null}}, {"class_name": "NumericColumn", "config": {"key": "opening_hand_Golden_Ratio", "shape": [1], "default_value": null, "dtype": "float32", "normalizer_fn": null}}, {"class_name": "NumericColumn", "config": {"key": "opening_hand_Grapeshot", "shape": [1], "default_value": null, "dtype": "float32", "normalizer_fn": null}}, {"class_name": "NumericColumn", "config": {"key": "opening_hand_Grinning_Ignus", "shape": [1], "default_value": null, "dtype": "float32", "normalizer_fn": null}}, {"class_name": "NumericColumn", "config": {"key": "opening_hand_Growth_Spiral", "shape": [1], "default_value": null, "dtype": "float32", "normalizer_fn": null}}, {"class_name": "NumericColumn", "config": {"key": "opening_hand_Guiding_Voice", "shape": [1], "default_value": null, "dtype": "float32", "normalizer_fn": null}}, {"class_name": "NumericColumn", "config": {"key": "opening_hand_Hall_Monitor", "shape": [1], "default_value": null, "dtype": "float32", "normalizer_fn": null}}, {"class_name": "NumericColumn", "config": {"key": "opening_hand_Hall_of_Oracles", "shape": [1], "default_value": null, "dtype": "float32", "normalizer_fn": null}}, {"class_name": "NumericColumn", "config": {"key": "opening_hand_Harmonize", "shape": [1], "default_value": null, "dtype": "float32", "normalizer_fn": null}}, {"class_name": "NumericColumn", "config": {"key": "opening_hand_Harness_Infinity", "shape": [1], "default_value": null, "dtype": "float32", "normalizer_fn": null}}, {"class_name": "NumericColumn", "config": {"key": "opening_hand_Heated_Debate", "shape": [1], "default_value": null, "dtype": "float32", "normalizer_fn": null}}, {"class_name": "NumericColumn", "config": {"key": "opening_hand_Hofri_Ghostforge", "shape": [1], "default_value": null, "dtype": "float32", "normalizer_fn": null}}, {"class_name": "NumericColumn", "config": {"key": "opening_hand_Honor_Troll", "shape": [1], "default_value": null, "dtype": "float32", "normalizer_fn": null}}, {"class_name": "NumericColumn", "config": {"key": "opening_hand_Humiliate", "shape": [1], "default_value": null, "dtype": "float32", "normalizer_fn": null}}, {"class_name": "NumericColumn", "config": {"key": "opening_hand_Hunt_for_Specimens", "shape": [1], "default_value": null, "dtype": "float32", "normalizer_fn": null}}, {"class_name": "NumericColumn", "config": {"key": "opening_hand_Igneous_Inspiration", "shape": [1], "default_value": null, "dtype": "float32", "normalizer_fn": null}}, {"class_name": "NumericColumn", "config": {"key": "opening_hand_Illuminate_History", "shape": [1], "default_value": null, "dtype": "float32", "normalizer_fn": null}}, {"class_name": "NumericColumn", "config": {"key": "opening_hand_Illustrious_Historian", "shape": [1], "default_value": null, "dtype": "float32", "normalizer_fn": null}}, {"class_name": "NumericColumn", "config": {"key": "opening_hand_Increasing_Vengeance", "shape": [1], "default_value": null, "dtype": "float32", "normalizer_fn": null}}, {"class_name": "NumericColumn", "config": {"key": "opening_hand_Infuriate", "shape": [1], "default_value": null, "dtype": "float32", "normalizer_fn": null}}, {"class_name": "NumericColumn", "config": {"key": "opening_hand_Infuse_with_Vitality", "shape": [1], "default_value": null, "dtype": "float32", "normalizer_fn": null}}, {"class_name": "NumericColumn", "config": {"key": "opening_hand_Ingenious_Mastery", "shape": [1], "default_value": null, "dtype": "float32", "normalizer_fn": null}}, {"class_name": "NumericColumn", "config": {"key": "opening_hand_Inkling_Summoning", "shape": [1], "default_value": null, "dtype": "float32", "normalizer_fn": null}}, {"class_name": "NumericColumn", "config": {"key": "opening_hand_Inquisition_of_Kozilek", "shape": [1], "default_value": null, "dtype": "float32", "normalizer_fn": null}}, {"class_name": "NumericColumn", "config": {"key": "opening_hand_Introduction_to_Annihilation", "shape": [1], "default_value": null, "dtype": "float32", "normalizer_fn": null}}, {"class_name": "NumericColumn", "config": {"key": "opening_hand_Introduction_to_Prophecy", "shape": [1], "default_value": null, "dtype": "float32", "normalizer_fn": null}}, {"class_name": "NumericColumn", "config": {"key": "opening_hand_Island", "shape": [1], "default_value": null, "dtype": "float32", "normalizer_fn": null}}, {"class_name": "NumericColumn", "config": {"key": "opening_hand_Jadzi_Oracle_of_Arcavios", "shape": [1], "default_value": null, "dtype": "float32", "normalizer_fn": null}}, {"class_name": "NumericColumn", "config": {"key": "opening_hand_Karok_Wrangler", "shape": [1], "default_value": null, "dtype": "float32", "normalizer_fn": null}}, {"class_name": "NumericColumn", "config": {"key": "opening_hand_Kasmina_Enigma_Sage", "shape": [1], "default_value": null, "dtype": "float32", "normalizer_fn": null}}, {"class_name": "NumericColumn", "config": {"key": "opening_hand_Kelpie_Guide", "shape": [1], "default_value": null, "dtype": "float32", "normalizer_fn": null}}, {"class_name": "NumericColumn", "config": {"key": "opening_hand_Kianne_Dean_of_Substance", "shape": [1], "default_value": null, "dtype": "float32", "normalizer_fn": null}}, {"class_name": "NumericColumn", "config": {"key": "opening_hand_Killian_Ink_Duelist", "shape": [1], "default_value": null, "dtype": "float32", "normalizer_fn": null}}, {"class_name": "NumericColumn", "config": {"key": "opening_hand_Krosan_Grip", "shape": [1], "default_value": null, "dtype": "float32", "normalizer_fn": null}}, {"class_name": "NumericColumn", "config": {"key": "opening_hand_Lash_of_Malice", "shape": [1], "default_value": null, "dtype": "float32", "normalizer_fn": null}}, {"class_name": "NumericColumn", "config": {"key": "opening_hand_Leech_Fanatic", "shape": [1], "default_value": null, "dtype": "float32", "normalizer_fn": null}}, {"class_name": "NumericColumn", "config": {"key": "opening_hand_Leonin_Lightscribe", "shape": [1], "default_value": null, "dtype": "float32", "normalizer_fn": null}}, {"class_name": "NumericColumn", "config": {"key": "opening_hand_Letter_of_Acceptance", "shape": [1], "default_value": null, "dtype": "float32", "normalizer_fn": null}}, {"class_name": "NumericColumn", "config": {"key": "opening_hand_Leyline_Invocation", "shape": [1], "default_value": null, "dtype": "float32", "normalizer_fn": null}}, {"class_name": "NumericColumn", "config": {"key": "opening_hand_Lightning_Bolt", "shape": [1], "default_value": null, "dtype": "float32", "normalizer_fn": null}}, {"class_name": "NumericColumn", "config": {"key": "opening_hand_Lightning_Helix", "shape": [1], "default_value": null, "dtype": "float32", "normalizer_fn": null}}, {"class_name": "NumericColumn", "config": {"key": "opening_hand_Lorehold_Apprentice", "shape": [1], "default_value": null, "dtype": "float32", "normalizer_fn": null}}, {"class_name": "NumericColumn", "config": {"key": "opening_hand_Lorehold_Campus", "shape": [1], "default_value": null, "dtype": "float32", "normalizer_fn": null}}, {"class_name": "NumericColumn", "config": {"key": "opening_hand_Lorehold_Command", "shape": [1], "default_value": null, "dtype": "float32", "normalizer_fn": null}}, {"class_name": "NumericColumn", "config": {"key": "opening_hand_Lorehold_Excavation", "shape": [1], "default_value": null, "dtype": "float32", "normalizer_fn": null}}, {"class_name": "NumericColumn", "config": {"key": "opening_hand_Lorehold_Pledgemage", "shape": [1], "default_value": null, "dtype": "float32", "normalizer_fn": null}}, {"class_name": "NumericColumn", "config": {"key": "opening_hand_Maelstrom_Muse", "shape": [1], "default_value": null, "dtype": "float32", "normalizer_fn": null}}, {"class_name": "NumericColumn", "config": {"key": "opening_hand_Mage_Duel", "shape": [1], "default_value": null, "dtype": "float32", "normalizer_fn": null}}, {"class_name": "NumericColumn", "config": {"key": "opening_hand_Mage_Hunter", "shape": [1], "default_value": null, "dtype": "float32", "normalizer_fn": null}}, {"class_name": "NumericColumn", "config": {"key": "opening_hand_Mage_Hunters_Onslaught", "shape": [1], "default_value": null, "dtype": "float32", "normalizer_fn": null}}, {"class_name": "NumericColumn", "config": {"key": "opening_hand_Magma_Opus", "shape": [1], "default_value": null, "dtype": "float32", "normalizer_fn": null}}, {"class_name": "NumericColumn", "config": {"key": "opening_hand_Make_Your_Mark", "shape": [1], "default_value": null, "dtype": "float32", "normalizer_fn": null}}, {"class_name": "NumericColumn", "config": {"key": "opening_hand_Mana_Tithe", "shape": [1], "default_value": null, "dtype": "float32", "normalizer_fn": null}}, {"class_name": "NumericColumn", "config": {"key": "opening_hand_Manifestation_Sage", "shape": [1], "default_value": null, "dtype": "float32", "normalizer_fn": null}}, {"class_name": "NumericColumn", "config": {"key": "opening_hand_Mascot_Exhibition", "shape": [1], "default_value": null, "dtype": "float32", "normalizer_fn": null}}, {"class_name": "NumericColumn", "config": {"key": "opening_hand_Mascot_Interception", "shape": [1], "default_value": null, "dtype": "float32", "normalizer_fn": null}}, {"class_name": "NumericColumn", "config": {"key": "opening_hand_Master_Symmetrist", "shape": [1], "default_value": null, "dtype": "float32", "normalizer_fn": null}}, {"class_name": "NumericColumn", "config": {"key": "opening_hand_Mavinda_Students_Advocate", "shape": [1], "default_value": null, "dtype": "float32", "normalizer_fn": null}}, {"class_name": "NumericColumn", "config": {"key": "opening_hand_Memory_Lapse", "shape": [1], "default_value": null, "dtype": "float32", "normalizer_fn": null}}, {"class_name": "NumericColumn", "config": {"key": "opening_hand_Mentors_Guidance", "shape": [1], "default_value": null, "dtype": "float32", "normalizer_fn": null}}, {"class_name": "NumericColumn", "config": {"key": "opening_hand_Mercurial_Transformation", "shape": [1], "default_value": null, "dtype": "float32", "normalizer_fn": null}}, {"class_name": "NumericColumn", "config": {"key": "opening_hand_Mila_Crafty_Companion", "shape": [1], "default_value": null, "dtype": "float32", "normalizer_fn": null}}, {"class_name": "NumericColumn", "config": {"key": "opening_hand_Minds_Desire", "shape": [1], "default_value": null, "dtype": "float32", "normalizer_fn": null}}, {"class_name": "NumericColumn", "config": {"key": "opening_hand_Mizzixs_Mastery", "shape": [1], "default_value": null, "dtype": "float32", "normalizer_fn": null}}, {"class_name": "NumericColumn", "config": {"key": "opening_hand_Moldering_Karok", "shape": [1], "default_value": null, "dtype": "float32", "normalizer_fn": null}}, {"class_name": "NumericColumn", "config": {"key": "opening_hand_Mortality_Spear", "shape": [1], "default_value": null, "dtype": "float32", "normalizer_fn": null}}, {"class_name": "NumericColumn", "config": {"key": "opening_hand_Mountain", "shape": [1], "default_value": null, "dtype": "float32", "normalizer_fn": null}}, {"class_name": "NumericColumn", "config": {"key": "opening_hand_Multiple_Choice", "shape": [1], "default_value": null, "dtype": "float32", "normalizer_fn": null}}, {"class_name": "NumericColumn", "config": {"key": "opening_hand_Natural_Order", "shape": [1], "default_value": null, "dtype": "float32", "normalizer_fn": null}}, {"class_name": "NumericColumn", "config": {"key": "opening_hand_Necroblossom_Snarl", "shape": [1], "default_value": null, "dtype": "float32", "normalizer_fn": null}}, {"class_name": "NumericColumn", "config": {"key": "opening_hand_Necrotic_Fumes", "shape": [1], "default_value": null, "dtype": "float32", "normalizer_fn": null}}, {"class_name": "NumericColumn", "config": {"key": "opening_hand_Needlethorn_Drake", "shape": [1], "default_value": null, "dtype": "float32", "normalizer_fn": null}}, {"class_name": "NumericColumn", "config": {"key": "opening_hand_Negate", "shape": [1], "default_value": null, "dtype": "float32", "normalizer_fn": null}}, {"class_name": "NumericColumn", "config": {"key": "opening_hand_Novice_Dissector", "shape": [1], "default_value": null, "dtype": "float32", "normalizer_fn": null}}, {"class_name": "NumericColumn", "config": {"key": "opening_hand_Oggyar_Battle-Seer", "shape": [1], "default_value": null, "dtype": "float32", "normalizer_fn": null}}, {"class_name": "NumericColumn", "config": {"key": "opening_hand_Opt", "shape": [1], "default_value": null, "dtype": "float32", "normalizer_fn": null}}, {"class_name": "NumericColumn", "config": {"key": "opening_hand_Oriq_Loremage", "shape": [1], "default_value": null, "dtype": "float32", "normalizer_fn": null}}, {"class_name": "NumericColumn", "config": {"key": "opening_hand_Overgrown_Arch", "shape": [1], "default_value": null, "dtype": "float32", "normalizer_fn": null}}, {"class_name": "NumericColumn", "config": {"key": "opening_hand_Owlin_Shieldmage", "shape": [1], "default_value": null, "dtype": "float32", "normalizer_fn": null}}, {"class_name": "NumericColumn", "config": {"key": "opening_hand_Pest_Summoning", "shape": [1], "default_value": null, "dtype": "float32", "normalizer_fn": null}}, {"class_name": "NumericColumn", "config": {"key": "opening_hand_Pestilent_Cauldron", "shape": [1], "default_value": null, "dtype": "float32", "normalizer_fn": null}}, {"class_name": "NumericColumn", "config": {"key": "opening_hand_Pigment_Storm", "shape": [1], "default_value": null, "dtype": "float32", "normalizer_fn": null}}, {"class_name": "NumericColumn", "config": {"key": "opening_hand_Pilgrim_of_the_Ages", "shape": [1], "default_value": null, "dtype": "float32", "normalizer_fn": null}}, {"class_name": "NumericColumn", "config": {"key": "opening_hand_Pillardrop_Rescuer", "shape": [1], "default_value": null, "dtype": "float32", "normalizer_fn": null}}, {"class_name": "NumericColumn", "config": {"key": "opening_hand_Pillardrop_Warden", "shape": [1], "default_value": null, "dtype": "float32", "normalizer_fn": null}}, {"class_name": "NumericColumn", "config": {"key": "opening_hand_Plains", "shape": [1], "default_value": null, "dtype": "float32", "normalizer_fn": null}}, {"class_name": "NumericColumn", "config": {"key": "opening_hand_Plargg_Dean_of_Chaos", "shape": [1], "default_value": null, "dtype": "float32", "normalizer_fn": null}}, {"class_name": "NumericColumn", "config": {"key": "opening_hand_Plumb_the_Forbidden", "shape": [1], "default_value": null, "dtype": "float32", "normalizer_fn": null}}, {"class_name": "NumericColumn", "config": {"key": "opening_hand_Poets_Quill", "shape": [1], "default_value": null, "dtype": "float32", "normalizer_fn": null}}, {"class_name": "NumericColumn", "config": {"key": "opening_hand_Pop_Quiz", "shape": [1], "default_value": null, "dtype": "float32", "normalizer_fn": null}}, {"class_name": "NumericColumn", "config": {"key": "opening_hand_Practical_Research", "shape": [1], "default_value": null, "dtype": "float32", "normalizer_fn": null}}, {"class_name": "NumericColumn", "config": {"key": "opening_hand_Primal_Command", "shape": [1], "default_value": null, "dtype": "float32", "normalizer_fn": null}}, {"class_name": "NumericColumn", "config": {"key": "opening_hand_Prismari_Apprentice", "shape": [1], "default_value": null, "dtype": "float32", "normalizer_fn": null}}, {"class_name": "NumericColumn", "config": {"key": "opening_hand_Prismari_Campus", "shape": [1], "default_value": null, "dtype": "float32", "normalizer_fn": null}}, {"class_name": "NumericColumn", "config": {"key": "opening_hand_Prismari_Command", "shape": [1], "default_value": null, "dtype": "float32", "normalizer_fn": null}}, {"class_name": "NumericColumn", "config": {"key": "opening_hand_Prismari_Pledgemage", "shape": [1], "default_value": null, "dtype": "float32", "normalizer_fn": null}}, {"class_name": "NumericColumn", "config": {"key": "opening_hand_Professor_Onyx", "shape": [1], "default_value": null, "dtype": "float32", "normalizer_fn": null}}, {"class_name": "NumericColumn", "config": {"key": "opening_hand_Professor_of_Symbology", "shape": [1], "default_value": null, "dtype": "float32", "normalizer_fn": null}}, {"class_name": "NumericColumn", "config": {"key": "opening_hand_Professor_of_Zoomancy", "shape": [1], "default_value": null, "dtype": "float32", "normalizer_fn": null}}, {"class_name": "NumericColumn", "config": {"key": "opening_hand_Professors_Warning", "shape": [1], "default_value": null, "dtype": "float32", "normalizer_fn": null}}, {"class_name": "NumericColumn", "config": {"key": "opening_hand_Promising_Duskmage", "shape": [1], "default_value": null, "dtype": "float32", "normalizer_fn": null}}, {"class_name": "NumericColumn", "config": {"key": "opening_hand_Putrefy", "shape": [1], "default_value": null, "dtype": "float32", "normalizer_fn": null}}, {"class_name": "NumericColumn", "config": {"key": "opening_hand_Quandrix_Apprentice", "shape": [1], "default_value": null, "dtype": "float32", "normalizer_fn": null}}, {"class_name": "NumericColumn", "config": {"key": "opening_hand_Quandrix_Campus", "shape": [1], "default_value": null, "dtype": "float32", "normalizer_fn": null}}, {"class_name": "NumericColumn", "config": {"key": "opening_hand_Quandrix_Command", "shape": [1], "default_value": null, "dtype": "float32", "normalizer_fn": null}}, {"class_name": "NumericColumn", "config": {"key": "opening_hand_Quandrix_Cultivator", "shape": [1], "default_value": null, "dtype": "float32", "normalizer_fn": null}}, {"class_name": "NumericColumn", "config": {"key": "opening_hand_Quandrix_Pledgemage", "shape": [1], "default_value": null, "dtype": "float32", "normalizer_fn": null}}, {"class_name": "NumericColumn", "config": {"key": "opening_hand_Quintorius_Field_Historian", "shape": [1], "default_value": null, "dtype": "float32", "normalizer_fn": null}}, {"class_name": "NumericColumn", "config": {"key": "opening_hand_Radiant_Scrollwielder", "shape": [1], "default_value": null, "dtype": "float32", "normalizer_fn": null}}, {"class_name": "NumericColumn", "config": {"key": "opening_hand_Reckless_Amplimancer", "shape": [1], "default_value": null, "dtype": "float32", "normalizer_fn": null}}, {"class_name": "NumericColumn", "config": {"key": "opening_hand_Reconstruct_History", "shape": [1], "default_value": null, "dtype": "float32", "normalizer_fn": null}}, {"class_name": "NumericColumn", "config": {"key": "opening_hand_Reduce_to_Memory", "shape": [1], "default_value": null, "dtype": "float32", "normalizer_fn": null}}, {"class_name": "NumericColumn", "config": {"key": "opening_hand_Reflective_Golem", "shape": [1], "default_value": null, "dtype": "float32", "normalizer_fn": null}}, {"class_name": "NumericColumn", "config": {"key": "opening_hand_Regrowth", "shape": [1], "default_value": null, "dtype": "float32", "normalizer_fn": null}}, {"class_name": "NumericColumn", "config": {"key": "opening_hand_Reject", "shape": [1], "default_value": null, "dtype": "float32", "normalizer_fn": null}}, {"class_name": "NumericColumn", "config": {"key": "opening_hand_Relic_Sloth", "shape": [1], "default_value": null, "dtype": "float32", "normalizer_fn": null}}, {"class_name": "NumericColumn", "config": {"key": "opening_hand_Resculpt", "shape": [1], "default_value": null, "dtype": "float32", "normalizer_fn": null}}, {"class_name": "NumericColumn", "config": {"key": "opening_hand_Retriever_Phoenix", "shape": [1], "default_value": null, "dtype": "float32", "normalizer_fn": null}}, {"class_name": "NumericColumn", "config": {"key": "opening_hand_Returned_Pastcaller", "shape": [1], "default_value": null, "dtype": "float32", "normalizer_fn": null}}, {"class_name": "NumericColumn", "config": {"key": "opening_hand_Revitalize", "shape": [1], "default_value": null, "dtype": "float32", "normalizer_fn": null}}, {"class_name": "NumericColumn", "config": {"key": "opening_hand_Rip_Apart", "shape": [1], "default_value": null, "dtype": "float32", "normalizer_fn": null}}, {"class_name": "NumericColumn", "config": {"key": "opening_hand_Rise_of_Extus", "shape": [1], "default_value": null, "dtype": "float32", "normalizer_fn": null}}, {"class_name": "NumericColumn", "config": {"key": "opening_hand_Rootha_Mercurial_Artist", "shape": [1], "default_value": null, "dtype": "float32", "normalizer_fn": null}}, {"class_name": "NumericColumn", "config": {"key": "opening_hand_Rowan_Scholar_of_Sparks", "shape": [1], "default_value": null, "dtype": "float32", "normalizer_fn": null}}, {"class_name": "NumericColumn", "config": {"key": "opening_hand_Rushed_Rebirth", "shape": [1], "default_value": null, "dtype": "float32", "normalizer_fn": null}}, {"class_name": "NumericColumn", "config": {"key": "opening_hand_Scurrid_Colony", "shape": [1], "default_value": null, "dtype": "float32", "normalizer_fn": null}}, {"class_name": "NumericColumn", "config": {"key": "opening_hand_Secret_Rendezvous", "shape": [1], "default_value": null, "dtype": "float32", "normalizer_fn": null}}, {"class_name": "NumericColumn", "config": {"key": "opening_hand_Sedgemoor_Witch", "shape": [1], "default_value": null, "dtype": "float32", "normalizer_fn": null}}, {"class_name": "NumericColumn", "config": {"key": "opening_hand_Selfless_Glyphweaver", "shape": [1], "default_value": null, "dtype": "float32", "normalizer_fn": null}}, {"class_name": "NumericColumn", "config": {"key": "opening_hand_Semesters_End", "shape": [1], "default_value": null, "dtype": "float32", "normalizer_fn": null}}, {"class_name": "NumericColumn", "config": {"key": "opening_hand_Serpentine_Curve", "shape": [1], "default_value": null, "dtype": "float32", "normalizer_fn": null}}, {"class_name": "NumericColumn", "config": {"key": "opening_hand_Shadewing_Laureate", "shape": [1], "default_value": null, "dtype": "float32", "normalizer_fn": null}}, {"class_name": "NumericColumn", "config": {"key": "opening_hand_Shadrix_Silverquill", "shape": [1], "default_value": null, "dtype": "float32", "normalizer_fn": null}}, {"class_name": "NumericColumn", "config": {"key": "opening_hand_Shaile_Dean_of_Radiance", "shape": [1], "default_value": null, "dtype": "float32", "normalizer_fn": null}}, {"class_name": "NumericColumn", "config": {"key": "opening_hand_Shineshadow_Snarl", "shape": [1], "default_value": null, "dtype": "float32", "normalizer_fn": null}}, {"class_name": "NumericColumn", "config": {"key": "opening_hand_Shock", "shape": [1], "default_value": null, "dtype": "float32", "normalizer_fn": null}}, {"class_name": "NumericColumn", "config": {"key": "opening_hand_Show_of_Confidence", "shape": [1], "default_value": null, "dtype": "float32", "normalizer_fn": null}}, {"class_name": "NumericColumn", "config": {"key": "opening_hand_Sign_in_Blood", "shape": [1], "default_value": null, "dtype": "float32", "normalizer_fn": null}}, {"class_name": "NumericColumn", "config": {"key": "opening_hand_Silverquill_Apprentice", "shape": [1], "default_value": null, "dtype": "float32", "normalizer_fn": null}}, {"class_name": "NumericColumn", "config": {"key": "opening_hand_Silverquill_Campus", "shape": [1], "default_value": null, "dtype": "float32", "normalizer_fn": null}}, {"class_name": "NumericColumn", "config": {"key": "opening_hand_Silverquill_Command", "shape": [1], "default_value": null, "dtype": "float32", "normalizer_fn": null}}, {"class_name": "NumericColumn", "config": {"key": "opening_hand_Silverquill_Pledgemage", "shape": [1], "default_value": null, "dtype": "float32", "normalizer_fn": null}}, {"class_name": "NumericColumn", "config": {"key": "opening_hand_Silverquill_Silencer", "shape": [1], "default_value": null, "dtype": "float32", "normalizer_fn": null}}, {"class_name": "NumericColumn", "config": {"key": "opening_hand_Snakeskin_Veil", "shape": [1], "default_value": null, "dtype": "float32", "normalizer_fn": null}}, {"class_name": "NumericColumn", "config": {"key": "opening_hand_Snow_Day", "shape": [1], "default_value": null, "dtype": "float32", "normalizer_fn": null}}, {"class_name": "NumericColumn", "config": {"key": "opening_hand_Solve_the_Equation", "shape": [1], "default_value": null, "dtype": "float32", "normalizer_fn": null}}, {"class_name": "NumericColumn", "config": {"key": "opening_hand_Soothsayer_Adept", "shape": [1], "default_value": null, "dtype": "float32", "normalizer_fn": null}}, {"class_name": "NumericColumn", "config": {"key": "opening_hand_Sparring_Regimen", "shape": [1], "default_value": null, "dtype": "float32", "normalizer_fn": null}}, {"class_name": "NumericColumn", "config": {"key": "opening_hand_Spectacle_Mage", "shape": [1], "default_value": null, "dtype": "float32", "normalizer_fn": null}}, {"class_name": "NumericColumn", "config": {"key": "opening_hand_Specter_of_the_Fens", "shape": [1], "default_value": null, "dtype": "float32", "normalizer_fn": null}}, {"class_name": "NumericColumn", "config": {"key": "opening_hand_Spell_Satchel", "shape": [1], "default_value": null, "dtype": "float32", "normalizer_fn": null}}, {"class_name": "NumericColumn", "config": {"key": "opening_hand_Spined_Karok", "shape": [1], "default_value": null, "dtype": "float32", "normalizer_fn": null}}, {"class_name": "NumericColumn", "config": {"key": "opening_hand_Spirit_Summoning", "shape": [1], "default_value": null, "dtype": "float32", "normalizer_fn": null}}, {"class_name": "NumericColumn", "config": {"key": "opening_hand_Spiteful_Squad", "shape": [1], "default_value": null, "dtype": "float32", "normalizer_fn": null}}, {"class_name": "NumericColumn", "config": {"key": "opening_hand_Springmane_Cervin", "shape": [1], "default_value": null, "dtype": "float32", "normalizer_fn": null}}, {"class_name": "NumericColumn", "config": {"key": "opening_hand_Square_Up", "shape": [1], "default_value": null, "dtype": "float32", "normalizer_fn": null}}, {"class_name": "NumericColumn", "config": {"key": "opening_hand_Star_Pupil", "shape": [1], "default_value": null, "dtype": "float32", "normalizer_fn": null}}, {"class_name": "NumericColumn", "config": {"key": "opening_hand_Start_from_Scratch", "shape": [1], "default_value": null, "dtype": "float32", "normalizer_fn": null}}, {"class_name": "NumericColumn", "config": {"key": "opening_hand_Stone_Rain", "shape": [1], "default_value": null, "dtype": "float32", "normalizer_fn": null}}, {"class_name": "NumericColumn", "config": {"key": "opening_hand_Stonebinders_Familiar", "shape": [1], "default_value": null, "dtype": "float32", "normalizer_fn": null}}, {"class_name": "NumericColumn", "config": {"key": "opening_hand_Stonebound_Mentor", "shape": [1], "default_value": null, "dtype": "float32", "normalizer_fn": null}}, {"class_name": "NumericColumn", "config": {"key": "opening_hand_Stonerise_Spirit", "shape": [1], "default_value": null, "dtype": "float32", "normalizer_fn": null}}, {"class_name": "NumericColumn", "config": {"key": "opening_hand_Storm-Kiln_Artist", "shape": [1], "default_value": null, "dtype": "float32", "normalizer_fn": null}}, {"class_name": "NumericColumn", "config": {"key": "opening_hand_Strategic_Planning", "shape": [1], "default_value": null, "dtype": "float32", "normalizer_fn": null}}, {"class_name": "NumericColumn", "config": {"key": "opening_hand_Strict_Proctor", "shape": [1], "default_value": null, "dtype": "float32", "normalizer_fn": null}}, {"class_name": "NumericColumn", "config": {"key": "opening_hand_Strixhaven_Stadium", "shape": [1], "default_value": null, "dtype": "float32", "normalizer_fn": null}}, {"class_name": "NumericColumn", "config": {"key": "opening_hand_Study_Break", "shape": [1], "default_value": null, "dtype": "float32", "normalizer_fn": null}}, {"class_name": "NumericColumn", "config": {"key": "opening_hand_Sudden_Breakthrough", "shape": [1], "default_value": null, "dtype": "float32", "normalizer_fn": null}}, {"class_name": "NumericColumn", "config": {"key": "opening_hand_Swamp", "shape": [1], "default_value": null, "dtype": "float32", "normalizer_fn": null}}, {"class_name": "NumericColumn", "config": {"key": "opening_hand_Swords_to_Plowshares", "shape": [1], "default_value": null, "dtype": "float32", "normalizer_fn": null}}, {"class_name": "NumericColumn", "config": {"key": "opening_hand_Symmetry_Sage", "shape": [1], "default_value": null, "dtype": "float32", "normalizer_fn": null}}, {"class_name": "NumericColumn", "config": {"key": "opening_hand_Tainted_Pact", "shape": [1], "default_value": null, "dtype": "float32", "normalizer_fn": null}}, {"class_name": "NumericColumn", "config": {"key": "opening_hand_Tanazir_Quandrix", "shape": [1], "default_value": null, "dtype": "float32", "normalizer_fn": null}}, {"class_name": "NumericColumn", "config": {"key": "opening_hand_Tangletrap", "shape": [1], "default_value": null, "dtype": "float32", "normalizer_fn": null}}, {"class_name": "NumericColumn", "config": {"key": "opening_hand_Teach_by_Example", "shape": [1], "default_value": null, "dtype": "float32", "normalizer_fn": null}}, {"class_name": "NumericColumn", "config": {"key": "opening_hand_Teachings_of_the_Archaics", "shape": [1], "default_value": null, "dtype": "float32", "normalizer_fn": null}}, {"class_name": "NumericColumn", "config": {"key": "opening_hand_Team_Pennant", "shape": [1], "default_value": null, "dtype": "float32", "normalizer_fn": null}}, {"class_name": "NumericColumn", "config": {"key": "opening_hand_Teferis_Protection", "shape": [1], "default_value": null, "dtype": "float32", "normalizer_fn": null}}, {"class_name": "NumericColumn", "config": {"key": "opening_hand_Tempted_by_the_Oriq", "shape": [1], "default_value": null, "dtype": "float32", "normalizer_fn": null}}, {"class_name": "NumericColumn", "config": {"key": "opening_hand_Tend_the_Pests", "shape": [1], "default_value": null, "dtype": "float32", "normalizer_fn": null}}, {"class_name": "NumericColumn", "config": {"key": "opening_hand_Tendrils_of_Agony", "shape": [1], "default_value": null, "dtype": "float32", "normalizer_fn": null}}, {"class_name": "NumericColumn", "config": {"key": "opening_hand_Tenured_Inkcaster", "shape": [1], "default_value": null, "dtype": "float32", "normalizer_fn": null}}, {"class_name": "NumericColumn", "config": {"key": "opening_hand_Test_of_Talents", "shape": [1], "default_value": null, "dtype": "float32", "normalizer_fn": null}}, {"class_name": "NumericColumn", "config": {"key": "opening_hand_Tezzerets_Gambit", "shape": [1], "default_value": null, "dtype": "float32", "normalizer_fn": null}}, {"class_name": "NumericColumn", "config": {"key": "opening_hand_The_Biblioplex", "shape": [1], "default_value": null, "dtype": "float32", "normalizer_fn": null}}, {"class_name": "NumericColumn", "config": {"key": "opening_hand_Thrill_of_Possibility", "shape": [1], "default_value": null, "dtype": "float32", "normalizer_fn": null}}, {"class_name": "NumericColumn", "config": {"key": "opening_hand_Thrilling_Discovery", "shape": [1], "default_value": null, "dtype": "float32", "normalizer_fn": null}}, {"class_name": "NumericColumn", "config": {"key": "opening_hand_Thunderous_Orator", "shape": [1], "default_value": null, "dtype": "float32", "normalizer_fn": null}}, {"class_name": "NumericColumn", "config": {"key": "opening_hand_Time_Warp", "shape": [1], "default_value": null, "dtype": "float32", "normalizer_fn": null}}, {"class_name": "NumericColumn", "config": {"key": "opening_hand_Tome_Shredder", "shape": [1], "default_value": null, "dtype": "float32", "normalizer_fn": null}}, {"class_name": "NumericColumn", "config": {"key": "opening_hand_Torrent_Sculptor", "shape": [1], "default_value": null, "dtype": "float32", "normalizer_fn": null}}, {"class_name": "NumericColumn", "config": {"key": "opening_hand_Twinscroll_Shaman", "shape": [1], "default_value": null, "dtype": "float32", "normalizer_fn": null}}, {"class_name": "NumericColumn", "config": {"key": "opening_hand_Umbral_Juke", "shape": [1], "default_value": null, "dtype": "float32", "normalizer_fn": null}}, {"class_name": "NumericColumn", "config": {"key": "opening_hand_Unwilling_Ingredient", "shape": [1], "default_value": null, "dtype": "float32", "normalizer_fn": null}}, {"class_name": "NumericColumn", "config": {"key": "opening_hand_Urzas_Rage", "shape": [1], "default_value": null, "dtype": "float32", "normalizer_fn": null}}, {"class_name": "NumericColumn", "config": {"key": "opening_hand_Uvilda_Dean_of_Perfection", "shape": [1], "default_value": null, "dtype": "float32", "normalizer_fn": null}}, {"class_name": "NumericColumn", "config": {"key": "opening_hand_Valentin_Dean_of_the_Vein", "shape": [1], "default_value": null, "dtype": "float32", "normalizer_fn": null}}, {"class_name": "NumericColumn", "config": {"key": "opening_hand_Vanishing_Verse", "shape": [1], "default_value": null, "dtype": "float32", "normalizer_fn": null}}, {"class_name": "NumericColumn", "config": {"key": "opening_hand_Velomachus_Lorehold", "shape": [1], "default_value": null, "dtype": "float32", "normalizer_fn": null}}, {"class_name": "NumericColumn", "config": {"key": "opening_hand_Venerable_Warsinger", "shape": [1], "default_value": null, "dtype": "float32", "normalizer_fn": null}}, {"class_name": "NumericColumn", "config": {"key": "opening_hand_Verdant_Mastery", "shape": [1], "default_value": null, "dtype": "float32", "normalizer_fn": null}}, {"class_name": "NumericColumn", "config": {"key": "opening_hand_Village_Rites", "shape": [1], "default_value": null, "dtype": "float32", "normalizer_fn": null}}, {"class_name": "NumericColumn", "config": {"key": "opening_hand_Vineglimmer_Snarl", "shape": [1], "default_value": null, "dtype": "float32", "normalizer_fn": null}}, {"class_name": "NumericColumn", "config": {"key": "opening_hand_Vortex_Runner", "shape": [1], "default_value": null, "dtype": "float32", "normalizer_fn": null}}, {"class_name": "NumericColumn", "config": {"key": "opening_hand_Wandering_Archaic", "shape": [1], "default_value": null, "dtype": "float32", "normalizer_fn": null}}, {"class_name": "NumericColumn", "config": {"key": "opening_hand_Waterfall_Aerialist", "shape": [1], "default_value": null, "dtype": "float32", "normalizer_fn": null}}, {"class_name": "NumericColumn", "config": {"key": "opening_hand_Weather_the_Storm", "shape": [1], "default_value": null, "dtype": "float32", "normalizer_fn": null}}, {"class_name": "NumericColumn", "config": {"key": "opening_hand_Whirlwind_Denial", "shape": [1], "default_value": null, "dtype": "float32", "normalizer_fn": null}}, {"class_name": "NumericColumn", "config": {"key": "opening_hand_Witherbloom_Apprentice", "shape": [1], "default_value": null, "dtype": "float32", "normalizer_fn": null}}, {"class_name": "NumericColumn", "config": {"key": "opening_hand_Witherbloom_Campus", "shape": [1], "default_value": null, "dtype": "float32", "normalizer_fn": null}}, {"class_name": "NumericColumn", "config": {"key": "opening_hand_Witherbloom_Command", "shape": [1], "default_value": null, "dtype": "float32", "normalizer_fn": null}}, {"class_name": "NumericColumn", "config": {"key": "opening_hand_Witherbloom_Pledgemage", "shape": [1], "default_value": null, "dtype": "float32", "normalizer_fn": null}}, {"class_name": "NumericColumn", "config": {"key": "opening_hand_Wormhole_Serpent", "shape": [1], "default_value": null, "dtype": "float32", "normalizer_fn": null}}, {"class_name": "NumericColumn", "config": {"key": "opening_hand_Zephyr_Boots", "shape": [1], "default_value": null, "dtype": "float32", "normalizer_fn": null}}, {"class_name": "NumericColumn", "config": {"key": "opening_hand_Zimone_Quandrix_Prodigy", "shape": [1], "default_value": null, "dtype": "float32", "normalizer_fn": null}}], "partitioner": null}}, {"class_name": "Dense", "config": {"name": "Hidden1", "trainable": true, "dtype": "float32", "units": 128, "activation": "relu", "use_bias": true, "kernel_initializer": {"class_name": "GlorotUniform", "config": {"seed": null}}, "bias_initializer": {"class_name": "Zeros", "config": {}}, "kernel_regularizer": {"class_name": "L2", "config": {"l2": 9.999999747378752e-05}}, "bias_regularizer": null, "activity_regularizer": null, "kernel_constraint": null, "bias_constraint": null}}, {"class_name": "Dropout", "config": {"name": "dropout", "trainable": true, "dtype": "float32", "rate": 0.1, "noise_shape": null, "seed": null}}, {"class_name": "Dense", "config": {"name": "Hidden2", "trainable": true, "dtype": "float32", "units": 128, "activation": "relu", "use_bias": true, "kernel_initializer": {"class_name": "GlorotUniform", "config": {"seed": null}}, "bias_initializer": {"class_name": "Zeros", "config": {}}, "kernel_regularizer": {"class_name": "L2", "config": {"l2": 9.999999747378752e-05}}, "bias_regularizer": null, "activity_regularizer": null, "kernel_constraint": null, "bias_constraint": null}}, {"class_name": "Dropout", "config": {"name": "dropout_1", "trainable": true, "dtype": "float32", "rate": 0.1, "noise_shape": null, "seed": null}}, {"class_name": "Dense", "config": {"name": "Output", "trainable": true, "dtype": "float32", "units": 1, "activation": "sigmoid", "use_bias": true, "kernel_initializer": {"class_name": "GlorotUniform", "config": {"seed": null}}, "bias_initializer": {"class_name": "Zeros", "config": {}}, "kernel_regularizer": null, "bias_regularizer": null, "activity_regularizer": null, "kernel_constraint": null, "bias_constraint": null}}], "build_input_shape": {"cards": [null, 1], "on_play": [null, 1], "opening_hand_Abundant_Harvest": [null, 1], "opening_hand_Academic_Dispute": [null, 1], "opening_hand_Academic_Probation": [null, 1], "opening_hand_Access_Tunnel": [null, 1], "opening_hand_Accomplished_Alchemist": [null, 1], "opening_hand_Adventurous_Impulse": [null, 1], "opening_hand_Aether_Helix": [null, 1], "opening_hand_Ageless_Guardian": [null, 1], "opening_hand_Agonizing_Remorse": [null, 1], "opening_hand_Approach_of_the_Second_Sun": [null, 1], "opening_hand_Arcane_Subtraction": [null, 1], "opening_hand_Archmage_Emeritus": [null, 1], "opening_hand_Archway_Commons": [null, 1], "opening_hand_Ardent_Dustspeaker": [null, 1], "opening_hand_Arrogant_Poet": [null, 1], "opening_hand_Augmenter_Pugilist": [null, 1], "opening_hand_Baleful_Mastery": [null, 1], "opening_hand_Basic_Conjuration": [null, 1], "opening_hand_Bayou_Groff": [null, 1], "opening_hand_Beaming_Defiance": [null, 1], "opening_hand_Beledros_Witherbloom": [null, 1], "opening_hand_Biblioplex_Assistant": [null, 1], "opening_hand_Big_Play": [null, 1], "opening_hand_Biomathematician": [null, 1], "opening_hand_Blade_Historian": [null, 1], "opening_hand_Blex_Vexing_Pest": [null, 1], "opening_hand_Blood_Age_General": [null, 1], "opening_hand_Blood_Researcher": [null, 1], "opening_hand_Blot_Out_the_Sky": [null, 1], "opening_hand_Blue_Suns_Zenith": [null, 1], "opening_hand_Body_of_Research": [null, 1], "opening_hand_Bookwurm": [null, 1], "opening_hand_Brackish_Trudge": [null, 1], "opening_hand_Brainstorm": [null, 1], "opening_hand_Burrog_Befuddler": [null, 1], "opening_hand_Bury_in_Books": [null, 1], "opening_hand_Callous_Bloodmage": [null, 1], "opening_hand_Campus_Guide": [null, 1], "opening_hand_Channel": [null, 1], "opening_hand_Chaos_Warp": [null, 1], "opening_hand_Charge_Through": [null, 1], "opening_hand_Claim_the_Firstborn": [null, 1], "opening_hand_Clever_Lumimancer": [null, 1], "opening_hand_Closing_Statement": [null, 1], "opening_hand_Codie_Vociferous_Codex": [null, 1], "opening_hand_Cogwork_Archivist": [null, 1], "opening_hand_Combat_Professor": [null, 1], "opening_hand_Compulsive_Research": [null, 1], "opening_hand_Confront_the_Past": [null, 1], "opening_hand_Conspiracy_Theorist": [null, 1], "opening_hand_Containment_Breach": [null, 1], "opening_hand_Counterspell": [null, 1], "opening_hand_Crackle_with_Power": [null, 1], "opening_hand_Cram_Session": [null, 1], "opening_hand_Creative_Outburst": [null, 1], "opening_hand_Crushing_Disappointment": [null, 1], "opening_hand_Crux_of_Fate": [null, 1], "opening_hand_Culling_Ritual": [null, 1], "opening_hand_Culmination_of_Studies": [null, 1], "opening_hand_Cultivate": [null, 1], "opening_hand_Curate": [null, 1], "opening_hand_Daemogoth_Titan": [null, 1], "opening_hand_Daemogoth_Woe-Eater": [null, 1], "opening_hand_Dark_Ritual": [null, 1], "opening_hand_Day_of_Judgment": [null, 1], "opening_hand_Deadly_Brew": [null, 1], "opening_hand_Decisive_Denial": [null, 1], "opening_hand_Defend_the_Campus": [null, 1], "opening_hand_Defiant_Strike": [null, 1], "opening_hand_Demonic_Tutor": [null, 1], "opening_hand_Despark": [null, 1], "opening_hand_Detention_Vortex": [null, 1], "opening_hand_Devastating_Mastery": [null, 1], "opening_hand_Devouring_Tendrils": [null, 1], "opening_hand_Dina_Soul_Steeper": [null, 1], "opening_hand_Divide_by_Zero": [null, 1], "opening_hand_Divine_Gambit": [null, 1], "opening_hand_Doom_Blade": [null, 1], "opening_hand_Double_Major": [null, 1], "opening_hand_Draconic_Intervention": [null, 1], "opening_hand_Dragons_Approach": [null, 1], "opening_hand_Dragonsguard_Elite": [null, 1], "opening_hand_Dramatic_Finale": [null, 1], "opening_hand_Dream_Strix": [null, 1], "opening_hand_Dueling_Coach": [null, 1], "opening_hand_Duress": [null, 1], "opening_hand_Eager_First-Year": [null, 1], "opening_hand_Ecological_Appreciation": [null, 1], "opening_hand_Efreet_Flamepainter": [null, 1], "opening_hand_Electrolyze": [null, 1], "opening_hand_Elemental_Expressionist": [null, 1], "opening_hand_Elemental_Masterpiece": [null, 1], "opening_hand_Elemental_Summoning": [null, 1], "opening_hand_Eliminate": [null, 1], "opening_hand_Elite_Spellbinder": [null, 1], "opening_hand_Emergent_Sequence": [null, 1], "opening_hand_Enthusiastic_Study": [null, 1], "opening_hand_Environmental_Sciences": [null, 1], "opening_hand_Ephemerate": [null, 1], "opening_hand_Essence_Infusion": [null, 1], "opening_hand_Eureka_Moment": [null, 1], "opening_hand_Excavated_Wall": [null, 1], "opening_hand_Exhilarating_Elocution": [null, 1], "opening_hand_Expanded_Anatomy": [null, 1], "opening_hand_Expel": [null, 1], "opening_hand_Explosive_Welcome": [null, 1], "opening_hand_Exponential_Growth": [null, 1], "opening_hand_Expressive_Iteration": [null, 1], "opening_hand_Extus_Oriq_Overlord": [null, 1], "opening_hand_Eyetwitch": [null, 1], "opening_hand_Faithless_Looting": [null, 1], "opening_hand_Fervent_Mastery": [null, 1], "opening_hand_Field_Trip": [null, 1], "opening_hand_First_Day_of_Class": [null, 1], "opening_hand_Flamescroll_Celebrant": [null, 1], "opening_hand_Flunk": [null, 1], "opening_hand_Forest": [null, 1], "opening_hand_Fortifying_Draught": [null, 1], "opening_hand_Fractal_Summoning": [null, 1], "opening_hand_Fracture": [null, 1], "opening_hand_Frost_Trickster": [null, 1], "opening_hand_Frostboil_Snarl": [null, 1], "opening_hand_Fuming_Effigy": [null, 1], "opening_hand_Furycalm_Snarl": [null, 1], "opening_hand_Galazeth_Prismari": [null, 1], "opening_hand_Gift_of_Estates": [null, 1], "opening_hand_Gnarled_Professor": [null, 1], "opening_hand_Go_Blank": [null, 1], "opening_hand_Gods_Willing": [null, 1], "opening_hand_Golden_Ratio": [null, 1], "opening_hand_Grapeshot": [null, 1], "opening_hand_Grinning_Ignus": [null, 1], "opening_hand_Growth_Spiral": [null, 1], "opening_hand_Guiding_Voice": [null, 1], "opening_hand_Hall_Monitor": [null, 1], "opening_hand_Hall_of_Oracles": [null, 1], "opening_hand_Harmonize": [null, 1], "opening_hand_Harness_Infinity": [null, 1], "opening_hand_Heated_Debate": [null, 1], "opening_hand_Hofri_Ghostforge": [null, 1], "opening_hand_Honor_Troll": [null, 1], "opening_hand_Humiliate": [null, 1], "opening_hand_Hunt_for_Specimens": [null, 1], "opening_hand_Igneous_Inspiration": [null, 1], "opening_hand_Illuminate_History": [null, 1], "opening_hand_Illustrious_Historian": [null, 1], "opening_hand_Increasing_Vengeance": [null, 1], "opening_hand_Infuriate": [null, 1], "opening_hand_Infuse_with_Vitality": [null, 1], "opening_hand_Ingenious_Mastery": [null, 1], "opening_hand_Inkling_Summoning": [null, 1], "opening_hand_Inquisition_of_Kozilek": [null, 1], "opening_hand_Introduction_to_Annihilation": [null, 1], "opening_hand_Introduction_to_Prophecy": [null, 1], "opening_hand_Island": [null, 1], "opening_hand_Jadzi_Oracle_of_Arcavios": [null, 1], "opening_hand_Karok_Wrangler": [null, 1], "opening_hand_Kasmina_Enigma_Sage": [null, 1], "opening_hand_Kelpie_Guide": [null, 1], "opening_hand_Kianne_Dean_of_Substance": [null, 1], "opening_hand_Killian_Ink_Duelist": [null, 1], "opening_hand_Krosan_Grip": [null, 1], "opening_hand_Lash_of_Malice": [null, 1], "opening_hand_Leech_Fanatic": [null, 1], "opening_hand_Leonin_Lightscribe": [null, 1], "opening_hand_Letter_of_Acceptance": [null, 1], "opening_hand_Leyline_Invocation": [null, 1], "opening_hand_Lightning_Bolt": [null, 1], "opening_hand_Lightning_Helix": [null, 1], "opening_hand_Lorehold_Apprentice": [null, 1], "opening_hand_Lorehold_Campus": [null, 1], "opening_hand_Lorehold_Command": [null, 1], "opening_hand_Lorehold_Excavation": [null, 1], "opening_hand_Lorehold_Pledgemage": [null, 1], "opening_hand_Maelstrom_Muse": [null, 1], "opening_hand_Mage_Duel": [null, 1], "opening_hand_Mage_Hunter": [null, 1], "opening_hand_Mage_Hunters_Onslaught": [null, 1], "opening_hand_Magma_Opus": [null, 1], "opening_hand_Make_Your_Mark": [null, 1], "opening_hand_Mana_Tithe": [null, 1], "opening_hand_Manifestation_Sage": [null, 1], "opening_hand_Mascot_Exhibition": [null, 1], "opening_hand_Mascot_Interception": [null, 1], "opening_hand_Master_Symmetrist": [null, 1], "opening_hand_Mavinda_Students_Advocate": [null, 1], "opening_hand_Memory_Lapse": [null, 1], "opening_hand_Mentors_Guidance": [null, 1], "opening_hand_Mercurial_Transformation": [null, 1], "opening_hand_Mila_Crafty_Companion": [null, 1], "opening_hand_Minds_Desire": [null, 1], "opening_hand_Mizzixs_Mastery": [null, 1], "opening_hand_Moldering_Karok": [null, 1], "opening_hand_Mortality_Spear": [null, 1], "opening_hand_Mountain": [null, 1], "opening_hand_Multiple_Choice": [null, 1], "opening_hand_Natural_Order": [null, 1], "opening_hand_Necroblossom_Snarl": [null, 1], "opening_hand_Necrotic_Fumes": [null, 1], "opening_hand_Needlethorn_Drake": [null, 1], "opening_hand_Negate": [null, 1], "opening_hand_Novice_Dissector": [null, 1], "opening_hand_Oggyar_Battle-Seer": [null, 1], "opening_hand_Opt": [null, 1], "opening_hand_Oriq_Loremage": [null, 1], "opening_hand_Overgrown_Arch": [null, 1], "opening_hand_Owlin_Shieldmage": [null, 1], "opening_hand_Pest_Summoning": [null, 1], "opening_hand_Pestilent_Cauldron": [null, 1], "opening_hand_Pigment_Storm": [null, 1], "opening_hand_Pilgrim_of_the_Ages": [null, 1], "opening_hand_Pillardrop_Rescuer": [null, 1], "opening_hand_Pillardrop_Warden": [null, 1], "opening_hand_Plains": [null, 1], "opening_hand_Plargg_Dean_of_Chaos": [null, 1], "opening_hand_Plumb_the_Forbidden": [null, 1], "opening_hand_Poets_Quill": [null, 1], "opening_hand_Pop_Quiz": [null, 1], "opening_hand_Practical_Research": [null, 1], "opening_hand_Primal_Command": [null, 1], "opening_hand_Prismari_Apprentice": [null, 1], "opening_hand_Prismari_Campus": [null, 1], "opening_hand_Prismari_Command": [null, 1], "opening_hand_Prismari_Pledgemage": [null, 1], "opening_hand_Professor_Onyx": [null, 1], "opening_hand_Professor_of_Symbology": [null, 1], "opening_hand_Professor_of_Zoomancy": [null, 1], "opening_hand_Professors_Warning": [null, 1], "opening_hand_Promising_Duskmage": [null, 1], "opening_hand_Putrefy": [null, 1], "opening_hand_Quandrix_Apprentice": [null, 1], "opening_hand_Quandrix_Campus": [null, 1], "opening_hand_Quandrix_Command": [null, 1], "opening_hand_Quandrix_Cultivator": [null, 1], "opening_hand_Quandrix_Pledgemage": [null, 1], "opening_hand_Quintorius_Field_Historian": [null, 1], "opening_hand_Radiant_Scrollwielder": [null, 1], "opening_hand_Reckless_Amplimancer": [null, 1], "opening_hand_Reconstruct_History": [null, 1], "opening_hand_Reduce_to_Memory": [null, 1], "opening_hand_Reflective_Golem": [null, 1], "opening_hand_Regrowth": [null, 1], "opening_hand_Reject": [null, 1], "opening_hand_Relic_Sloth": [null, 1], "opening_hand_Resculpt": [null, 1], "opening_hand_Retriever_Phoenix": [null, 1], "opening_hand_Returned_Pastcaller": [null, 1], "opening_hand_Revitalize": [null, 1], "opening_hand_Rip_Apart": [null, 1], "opening_hand_Rise_of_Extus": [null, 1], "opening_hand_Rootha_Mercurial_Artist": [null, 1], "opening_hand_Rowan_Scholar_of_Sparks": [null, 1], "opening_hand_Rushed_Rebirth": [null, 1], "opening_hand_Scurrid_Colony": [null, 1], "opening_hand_Secret_Rendezvous": [null, 1], "opening_hand_Sedgemoor_Witch": [null, 1], "opening_hand_Selfless_Glyphweaver": [null, 1], "opening_hand_Semesters_End": [null, 1], "opening_hand_Serpentine_Curve": [null, 1], "opening_hand_Shadewing_Laureate": [null, 1], "opening_hand_Shadrix_Silverquill": [null, 1], "opening_hand_Shaile_Dean_of_Radiance": [null, 1], "opening_hand_Shineshadow_Snarl": [null, 1], "opening_hand_Shock": [null, 1], "opening_hand_Show_of_Confidence": [null, 1], "opening_hand_Sign_in_Blood": [null, 1], "opening_hand_Silverquill_Apprentice": [null, 1], "opening_hand_Silverquill_Campus": [null, 1], "opening_hand_Silverquill_Command": [null, 1], "opening_hand_Silverquill_Pledgemage": [null, 1], "opening_hand_Silverquill_Silencer": [null, 1], "opening_hand_Snakeskin_Veil": [null, 1], "opening_hand_Snow_Day": [null, 1], "opening_hand_Solve_the_Equation": [null, 1], "opening_hand_Soothsayer_Adept": [null, 1], "opening_hand_Sparring_Regimen": [null, 1], "opening_hand_Spectacle_Mage": [null, 1], "opening_hand_Specter_of_the_Fens": [null, 1], "opening_hand_Spell_Satchel": [null, 1], "opening_hand_Spined_Karok": [null, 1], "opening_hand_Spirit_Summoning": [null, 1], "opening_hand_Spiteful_Squad": [null, 1], "opening_hand_Springmane_Cervin": [null, 1], "opening_hand_Square_Up": [null, 1], "opening_hand_Star_Pupil": [null, 1], "opening_hand_Start_from_Scratch": [null, 1], "opening_hand_Stone_Rain": [null, 1], "opening_hand_Stonebinders_Familiar": [null, 1], "opening_hand_Stonebound_Mentor": [null, 1], "opening_hand_Stonerise_Spirit": [null, 1], "opening_hand_Storm-Kiln_Artist": [null, 1], "opening_hand_Strategic_Planning": [null, 1], "opening_hand_Strict_Proctor": [null, 1], "opening_hand_Strixhaven_Stadium": [null, 1], "opening_hand_Study_Break": [null, 1], "opening_hand_Sudden_Breakthrough": [null, 1], "opening_hand_Swamp": [null, 1], "opening_hand_Swords_to_Plowshares": [null, 1], "opening_hand_Symmetry_Sage": [null, 1], "opening_hand_Tainted_Pact": [null, 1], "opening_hand_Tanazir_Quandrix": [null, 1], "opening_hand_Tangletrap": [null, 1], "opening_hand_Teach_by_Example": [null, 1], "opening_hand_Teachings_of_the_Archaics": [null, 1], "opening_hand_Team_Pennant": [null, 1], "opening_hand_Teferis_Protection": [null, 1], "opening_hand_Tempted_by_the_Oriq": [null, 1], "opening_hand_Tend_the_Pests": [null, 1], "opening_hand_Tendrils_of_Agony": [null, 1], "opening_hand_Tenured_Inkcaster": [null, 1], "opening_hand_Test_of_Talents": [null, 1], "opening_hand_Tezzerets_Gambit": [null, 1], "opening_hand_The_Biblioplex": [null, 1], "opening_hand_Thrill_of_Possibility": [null, 1], "opening_hand_Thrilling_Discovery": [null, 1], "opening_hand_Thunderous_Orator": [null, 1], "opening_hand_Time_Warp": [null, 1], "opening_hand_Tome_Shredder": [null, 1], "opening_hand_Torrent_Sculptor": [null, 1], "opening_hand_Twinscroll_Shaman": [null, 1], "opening_hand_Umbral_Juke": [null, 1], "opening_hand_Unwilling_Ingredient": [null, 1], "opening_hand_Urzas_Rage": [null, 1], "opening_hand_Uvilda_Dean_of_Perfection": [null, 1], "opening_hand_Valentin_Dean_of_the_Vein": [null, 1], "opening_hand_Vanishing_Verse": [null, 1], "opening_hand_Velomachus_Lorehold": [null, 1], "opening_hand_Venerable_Warsinger": [null, 1], "opening_hand_Verdant_Mastery": [null, 1], "opening_hand_Village_Rites": [null, 1], "opening_hand_Vineglimmer_Snarl": [null, 1], "opening_hand_Vortex_Runner": [null, 1], "opening_hand_Wandering_Archaic": [null, 1], "opening_hand_Waterfall_Aerialist": [null, 1], "opening_hand_Weather_the_Storm": [null, 1], "opening_hand_Whirlwind_Denial": [null, 1], "opening_hand_Witherbloom_Apprentice": [null, 1], "opening_hand_Witherbloom_Campus": [null, 1], "opening_hand_Witherbloom_Command": [null, 1], "opening_hand_Witherbloom_Pledgemage": [null, 1], "opening_hand_Wormhole_Serpent": [null, 1], "opening_hand_Zephyr_Boots": [null, 1], "opening_hand_Zimone_Quandrix_Prodigy": [null, 1]}}}, "training_config": {"loss": {"class_name": "BinaryCrossentropy", "config": {"reduction": "auto", "name": "binary_crossentropy", "from_logits": false, "label_smoothing": 0, "axis": -1}}, "metrics": [[{"class_name": "MeanMetricWrapper", "config": {"name": "mse", "dtype": "float32", "fn": "mean_squared_error"}}]], "loss_weights": null, "sample_weight_mode": null, "weighted_metrics": null, "optimizer_config": {"class_name": "RMSprop", "config": {"name": "RMSprop", "learning_rate": 0.0010000000474974513, "decay": 0.0, "rho": 0.8999999761581421, "momentum": 0.0, "epsilon": 1e-07, "centered": false}}}}, "weightsManifest": [{"paths": ["group1-shard1of1.bin"], "weights": [{"name": "sequential/Hidden1/kernel", "shape": [345, 128], "dtype": "float32"}, {"name": "sequential/Hidden1/bias", "shape": [128], "dtype": "float32"}, {"name": "sequential/Hidden2/kernel", "shape": [128, 128], "dtype": "float32"}, {"name": "sequential/Hidden2/bias", "shape": [128], "dtype": "float32"}, {"name": "sequential/Output/kernel", "shape": [128, 1], "dtype": "float32"}, {"name": "sequential/Output/bias", "shape": [1], "dtype": "float32"}]}]}